model_weights/scene_classifier.pt (torch, 349344 bytes, 20 tensors)

weight f4 [32, 3, 3, 3]
000000 12 de a4 98 42 09 89 99 f7 0b 2b 98 29 0f 52 99
       -4.261724e-24 -1.4169207e-23 -2.2107273e-24 -1.0859807e-23
000010 4d b0 1e 99 f7 3f a8 96 47 01 87 99 b9 62 fb 96
       -8.204012e-24 -2.7182231e-25 -1.3959189e-23 -4.061354e-25
000020 12 1e 9c 97 20 e2 80 98 63 d0 71 99 57 68 7c 98
       -1.0088855e-24 -3.3315552e-24 -1.2501491e-23 -3.2622915e-24
000030 f7 12 2a 99 b6 84 30 99 f2 c9 56 97 14 d6 77 99
       -8.792624e-24 -9.1257875e-24 -6.940202e-25 -1.28128334e-23
000040 4e 5a 8e 97 9b 73 e6 97 39 df 86 98 38 f9 78 99
       -9.199331e-25 -1.4892585e-24 -3.4863585e-24 -1.2871629e-23
000050 da 35 8b 98 9f 2b 31 99 7b 60 2d 99 48 b6 81 97
       -3.5985034e-24 -9.159495e-24 -8.9633744e-24 -8.382444e-25
000060 3d 64 7b 99 0e a3 86 97 c5 44 01 98 5b 01 00 80
       -1.2996639e-23 -8.700708e-25 -1.6707579e-24 -4.86e-43
000070 67 02 00 80 48 01 00 80 9f 02 00 00 e7 00 00 80
       -8.62e-43 -4.6e-43 9.4e-43 -3.24e-43
000080 08 01 00 00 53 02 00 80 4a 00 00 00 1b 00 00 80
       3.7e-43 -8.34e-43 1.04e-43 -3.8e-44
000090 3c 02 00 00 5e 02 00 00 b9 02 00 00 c4 01 00 80
       8.02e-43 8.49e-43 9.77e-43 -6.33e-43
0000a0 ce 01 00 80 1d 01 00 80 c9 01 00 00 48 01 00 00
       -6.47e-43 -4e-43 6.4e-43 4.6e-43
0000b0 45 00 00 80 18 01 00 00 92 01 00 00 3b 02 00 00
       -9.7e-44 3.92e-43 5.63e-43 8e-43
0000c0 a0 00 00 00 ff 00 00 00 d9 02 00 80 c0 01 00 80
       2.24e-43 3.57e-43 -1.022e-42 -6.28e-43
0000d0 b2 01 00 80 93 00 00 80 1d d8 f6 3b 1e 51 1b bc
       -6.08e-43 -2.06e-43 0.007533087 -0.009479789
0000e0 22 dd 3e 3b 23 3a 1b 3c c5 d7 80 bb ad 18 14 3c
       0.0029123505 0.00947431 -0.0039319717 0.009039086
0000f0 d5 d7 a8 bb ba ff aa 39 47 9b c3 3b f8 c1 f7 3b
       -0.0051526823 0.00032615458 0.0059694382 0.0075609647
000100 18 50 1f bc 67 50 3e 3b 15 5d 1c 3c 6d 03 84 bb
       -0.009723686 0.0029039623 0.009543677 -0.0040287287
000110 c6 b1 1d 3c bd 98 b1 bb 8b da 82 39 e4 d8 c3 3b
       0.009624904 -0.005419819 0.0002495836 0.005976783
000120 00 98 ee 3b db 09 20 bc 34 8c 81 3b 9b 20 19 3c
       0.0072813034 -0.009767975 0.003953481 0.009346153
000130 c1 5e 83 bb 6c 27 57 3c d8 cb ba bb 0a 16 18 39
       -0.0040090983 0.0131319575 -0.0057005696 0.0001450406
000140 fa dd e4 3b 46 41 1c 2e 5f e8 11 ae 46 a4 16 2b
       0.0069844695 3.5528268e-11 -3.317557e-11 5.351868e-13
000150 7d 1f f4 2a 41 f0 a8 29 da cc a3 2c 3a fb 33 ae
       4.3364956e-13 7.502376e-14 4.6554817e-12 -4.0923022e-11
000160 af 9b 94 a9 aa 46 c9 2b b4 bc 4a 2e d1 c9 58 ae
       -6.599527e-14 1.4301522e-12 4.6097084e-11 -4.9291963e-11
000170 7b ae 87 2b 43 b4 c1 ab 95 df 80 a9 66 50 27 2d
       9.640755e-13 -1.3763507e-12 -5.723127e-14 9.510703e-12
000180 fc f6 81 ae 22 9c 30 aa 94 a5 82 2a 25 c9 34 2e
       -5.910114e-11 -1.568611e-13 2.3207532e-13 4.1105914e-11
000190 c7 f9 48 ae 77 c4 f5 2b 79 18 b2 ab d5 05 c3 a8
       -4.5696582e-11 1.7462827e-12 -1.2654453e-12 -2.1651878e-14
0001a0 b1 a2 af 2d a4 9b 6f ae 5a aa 0f aa f0 94 87 ac
       1.9967446e-11 -5.4480545e-11 -1.2760054e-13 -3.853466e-12
0001b0 dd 03 e2 1a 0e 23 e1 1a 72 1b a3 1a d7 66 4b 1a
       9.347765e-23 9.311445e-23 6.745956e-23 4.206249e-23
0001c0 e6 38 dd 9a 3b 2a a8 1a 8f 89 cd 9a 20 83 13 9a
       -9.149538e-23 6.95514e-23 -8.500825e-23 -3.050481e-23
0001d0 5c ec c2 1a 07 af e6 98 ad d9 db 99 fb 34 72 1a
       8.061838e-23 -5.963034e-24 -2.2731988e-23 5.0087224e-23
0001e0 fb 3c ec 1a ee c6 26 9a 21 54 b9 9a a3 6a 02 9b
       9.770583e-23 -3.448869e-23 -7.6650124e-23 -1.0787804e-22
0001f0 93 b8 ce 9a 33 c6 b9 1a 96 01 8f 98 4f e0 00 99
       -8.54978e-23 7.6834415e-23 -3.6966235e-24 -6.662744e-24
000200 af c0 0e 1a ba ab e8 1a 0a 9a 7c 9a 54 db 8b 9a
       2.952056e-23 9.623039e-23 -5.223681e-23 -5.7843396e-23
000210 55 34 02 9b 51 af ce 9a 54 07 bc 1a 59 78 fb 87
       -1.0770257e-22 -8.548284e-23 7.7766817e-23 -3.7837016e-34
000220 12 c0 d4 07 9d 1a d7 87 0c 4e 2f 87 83 20 74 86
       3.2011103e-34 -3.2365246e-34 -1.3188473e-34 -4.5915185e-35
000230 86 aa cf 87 3e fb ad 87 c0 dc af 06 b4 34 b0 07
       -3.1246123e-34 -2.6177814e-34 6.6152047e-35 2.6512513e-34
000240 1a ad 1a 88 24 53 16 07 e9 09 f2 86 7f ba bd 87
       -4.654617e-34 1.1309179e-34 -9.1044844e-35 -2.8547172e-34
000250 22 f4 35 87 b2 6f ff 06 9b 59 80 86 6d e8 07 05
       -1.3688671e-34 9.608446e-35 -4.827991e-35 6.3903594e-36
000260 1c 00 e0 86 e0 4d 7c 07 68 16 59 87 4b 5f e9 04
       -8.4259596e-35 1.8981258e-34 -1.633185e-34 5.486555e-36
000270 0a 94 2c 88 fd ff fb 87 02 68 94 07 ff 99 0a 07
       -5.1933386e-34 -3.791674e-34 2.2329695e-34 1.0427221e-34
000280 2e 7c f4 87 7f 66 1f 07 6a 6e 4b 9b 3a d3 e8 96
       -3.6786026e-34 1.1991951e-34 -1.6827443e-22 -3.7614924e-25
000290 95 f7 63 1a cb 77 33 9a fb 74 8c 1b 28 c3 61 1b
       4.7142495e-23 -3.71131e-23 2.3236654e-22 1.8674622e-22
0002a0 f2 10 d0 9a 94 2b be 9b d8 70 1f 1b 59 70 aa 1b
       -8.605416e-23 -3.1461025e-22 1.3188634e-22 2.8196744e-22
0002b0 72 f0 84 9b 3c 37 83 9b f1 bc a4 9b db 25 07 9b
       -2.1992952e-22 -2.1707826e-22 -2.7253625e-22 -1.117917e-22
0002c0 3b 93 69 1b b3 6f 7b 1b 98 1f 2e 9a b1 fd 9b 9b
       1.9320881e-22 2.0798325e-22 -3.6007878e-23 -2.5806543e-22
0002d0 9c cb 95 1b 7b 8d 81 9b ca 2c 3b 9b 0f 91 a5 9b
       2.4781562e-22 -2.143269e-22 -1.548275e-22 -2.7390702e-22
0002e0 ea 84 17 9a 88 e9 65 99 0e 8b 73 1b f8 79 ef 9a
       -3.1333435e-23 -1.1886184e-23 2.014542e-22 -9.9045134e-23
0002f0 0d 54 dc 9a 8f bc 59 a2 af cf ce ac e1 c6 a8 aa
       -9.112566e-23 -2.9508806e-18 -5.8779297e-12 -2.9980795e-13
000300 c7 83 60 a4 ea 1e fb a7 6a a5 30 2c ee 31 a6 a3
       -4.8683877e-17 -6.970001e-15 2.5102928e-12 -1.8018902e-17
000310 1c 9f 27 2f a4 60 43 26 70 75 82 a4 70 47 b3 af
       1.5245089e-10 6.778519e-16 -5.657746e-17 -3.261067e-10
000320 1e e9 61 2d 24 46 c8 a5 95 ce fe 29 e6 ba ad a3
       1.2841532e-11 -3.4741999e-16 1.1315702e-13 -1.8835852e-17
000330 6e 74 45 a7 d0 90 94 b1 f4 05 3d 27 5a 3e ff 24
       -2.7402359e-15 -4.32383e-09 2.6232246e-15 1.1069425e-16
000340 50 6f a4 30 5d 90 d0 ae e0 c4 16 25 7c 6d ea 29
       1.1964207e-09 -9.484389e-11 1.307713e-16 1.041068e-13
000350 b3 23 2e 20 e6 83 14 a7 7c d9 5b b1 09 3e 1a a8
       1.4750185e-19 -2.0610628e-15 -3.199232e-09 -8.562169e-15
000360 05 0d 89 bb c4 2e b2 3b ff 3d 0b bc 50 7c 82 bb
       -0.0041824603 0.005437704 -0.008498668 -0.0039821044
000370 15 42 5b 3c 67 a0 5c bc be 5a bb 3c b4 81 14 3b
       0.013382454 -0.013465977 0.022870418 0.0022660317
000380 a9 be 74 3b 57 84 97 bb a0 85 bb 3b 8e 4b 30 bc
       0.0037345088 -0.0046239304 0.0057227165 -0.010760201
000390 e2 b2 8c bb 3d 33 61 3c ea c1 81 bc e5 a2 bc 3c
       -0.0042937854 0.013745126 -0.015839536 0.023026893
0003a0 5c 64 e6 3a e8 77 b8 3a 3c 04 9f bb 0f 2f b7 3b
       0.0017577517 0.0014073821 -0.0048527997 0.0055903266
0003b0 ee a9 6a bc aa 1a 93 bb 2c fd 5f 3c 49 83 9d bc
       -0.014322741 -0.0044892626 0.013671201 -0.01922764
0003c0 e1 6c b2 3c e2 4d 98 3a 94 ec 3e bb 43 38 46 bb
       0.021780433 0.001161989 -0.002913271 -0.0030245937
0003d0 1c d6 a5 bb a6 e3 3e bc 44 94 4e 3b 71 41 ab 3b
       -0.005060924 -0.011650955 0.0031521479 0.005226307
0003e0 8a 93 d3 3a 2b 64 b5 37 03 75 a7 3b cc de 9f ba
       0.0016141993 2.1623526e-05 0.0051103844 -0.0012197136
0003f0 06 0f 44 bb ac 96 a9 bb 3e e5 3b bc b4 26 5b 3b
       -0.0029916181 -0.005175432 -0.01146823 0.0033439817

bias f4 [32]
000000 ba 5d 65 b4 e8 75 05 29 95 a7 68 33 f3 4a 70 b3
       -2.1361384e-07 2.96342e-14 5.4169124e-08 -5.594752e-08
000010 6a e4 8b a9 e1 86 3c a8 c5 de c7 a9 96 e4 91 a8
       -6.2124635e-14 -1.0465344e-14 -8.8760196e-14 -1.6197367e-14
000020 fa 14 a8 b6 54 2f 9d 35 4d e3 4e ae df 28 cb a8
       -5.009232e-06 1.1711186e-06 -4.704086e-11 -2.2555252e-14
000030 71 d6 b2 2c b1 3c 2f ab 22 d6 68 32 76 a3 d1 b4
       5.082872e-12 -6.2256716e-13 1.35528655e-08 -3.9048217e-07
000040 53 7f 77 23 cf f6 23 36 4c 7b 7b 33 6e ca 00 b0
       1.3416859e-17 2.4432554e-06 5.855263e-08 -4.68538e-10
000050 b3 73 82 35 06 a6 13 31 ec dd b7 b2 c4 61 e9 29
       9.719428e-07 2.1485689e-09 -2.1404922e-08 1.0364238e-13
000060 cd bb ba 26 f8 7d 81 a5 8f 47 a9 31 eb e4 6e a5
       1.2957246e-15 -2.2463293e-16 4.9266826e-09 -2.072077e-16
000070 2c df dc 2f 62 41 db 26 e7 9d 3a 35 af 86 17 2c
       4.017634e-10 1.52139e-15 6.952018e-07 2.1533155e-12

weight f4 [32]
000000 b9 dc 63 a1 71 00 00 00 de 9b 7b 3d f0 14 02 b9
       -7.7202716e-19 1.58e-43 0.061427943 -0.00012405566
000010 d8 35 44 b7 66 94 03 09 7a 40 fb 1b ca 2b b9 98
       -1.1695047e-05 1.5838328e-33 4.1566134e-22 -4.7865595e-24
000020 de 5b 75 3d a6 81 f1 bc 1a 00 00 00 9d 00 00 80
       0.059902065 -0.029480767 3.6e-44 -2.2e-43
000030 cc 55 48 ab 92 a5 cc 09 ce 03 91 3b 14 7b 68 0d
       -7.117334e-13 4.9266915e-33 0.0044255024 7.163867e-31
000040 1d c8 7d 06 78 0b 58 3d b2 d2 c4 b0 9f 0f 71 9f
       4.773103e-35 0.052745312 -1.432076e-09 -5.1046657e-20
000050 8a 65 05 3d 42 48 7f b9 34 b5 21 ba 25 00 00 80
       0.03256754 -0.00024345613 -0.0006168664 -5.2e-44
000060 39 00 00 00 6f 06 dd 88 2b 00 00 80 a4 db a1 97
       8e-44 -1.3302466e-33 -6e-44 -1.0459826e-24
000070 84 00 00 00 1b 0d 42 0b 80 fd f8 bc bb 3a 47 8a
       1.85e-43 3.73729e-32 -0.030394316 -9.5925474e-33

bias f4 [32]
000000 67 fd fc b2 fb a6 fd 9e 77 36 13 bb 19 f7 1c b7
       -2.9451895e-08 -2.6856478e-20 -0.0022462883 -9.3558565e-06
000010 b1 4a 74 b6 7c 67 25 b7 b5 1d 26 b7 93 e4 d0 9d
       -3.640231e-06 -9.858861e-06 -9.901288e-06 -5.529348e-21
000020 6d b3 05 bd 52 8f b7 3c 12 73 36 8a 40 57 a9 a1
       -0.032641817 0.022407208 -8.7846236e-33 -1.147498e-18
000030 5e 37 c8 b1 db 32 95 a0 c5 eb 26 3a f6 43 9a a5
       -5.8270606e-09 -2.5275235e-19 0.000636753 -2.6760794e-16
000040 27 34 db 29 29 16 b8 bb b8 15 b6 b1 53 b1 47 aa
       9.734601e-14 -0.005617876 -5.2993663e-09 -1.7736272e-13
000050 53 91 05 3c e6 bf 14 3b 93 68 37 39 5e 06 90 a1
       0.008152324 0.0022697388 0.00017491197 -9.759505e-19
000060 49 a5 92 b2 83 b7 89 29 61 6b c9 b2 eb 90 27 9d
       -1.70718e-08 6.1158564e-14 -2.344831e-08 -2.2177187e-21
000070 74 ea 83 b4 0a 55 b8 28 32 a1 00 3d 0c 85 a2 b3
       -2.4571239e-07 2.0464983e-14 0.031403728 -7.567914e-08

running_mean f4 [32]
000000 9a 2c 1b 32 7c 73 ca a6 4d 93 02 bd d4 95 5e 31
       9.032329e-09 -1.4047868e-15 -0.03187876 3.239042e-09
000010 40 64 70 27 d9 7c 10 26 8c b5 dd 27 34 e8 65 30
       3.3361036e-15 5.0129236e-16 6.1536656e-15 8.3639695e-10
000020 31 d7 e6 bb 01 f9 8b 3c 87 05 1c 2c 19 47 fe 26
       -0.007044696 0.017086508 2.2172002e-12 1.7644062e-15
000030 81 22 a0 aa 0c 4a 38 29 bc 46 25 3b f4 90 ae 32
       -2.844565e-13 4.0920433e-14 0.0025219163 2.0322183e-08
000040 fe 23 50 a1 40 22 e3 3c 90 9e b6 33 46 2d b9 2d
       -7.0520776e-19 0.027726293 8.503878e-08 2.105217e-11
000050 7a 94 3e 3b 17 a6 8b 3b 21 2c 85 ba c8 25 bb a7
       0.0029080198 0.004261743 -0.0010160246 -5.194389e-15
000060 7d eb 98 a4 79 92 62 23 8c 7a 91 30 fe a7 98 2e
       -6.6318425e-17 1.2282501e-17 1.0584968e-09 6.942001e-11
000070 ca 43 cd ad 4d 5d 8a a5 d0 73 9f bb 48 6e e7 a9
       -2.3335906e-11 -2.4002407e-16 -0.004866101 -1.02775915e-13

running_var f4 [32]
000000 fc 11 08 11 16 00 00 00 7a 3e 89 3b 2b 4b d8 1e
       1.073405e-28 3.1e-44 0.004188356 2.2900978e-20
000010 7b 46 01 00 16 00 00 00 de 48 07 00 0e 7f 1f 26
       1.17119e-40 3.1e-44 6.68988e-40 5.53364e-16
000020 b9 bb 0e 3b 64 bf d6 39 cd a6 69 06 04 c5 00 00
       0.0021779372 0.00040959858 4.3944975e-35 7.0676e-41
000030 15 f2 f1 02 b3 7a a4 00 17 fc 1a 37 07 31 0e 12
       3.5550716e-37 1.5105038e-38 9.2378095e-06 4.486773e-28
000040 04 00 00 00 d7 ba c1 3a cd 7a e0 2a c6 bb 2c 02
       6e-45 0.0014780414 3.9875603e-13 1.2690453e-37
000050 cb fb d1 39 eb 0a 01 38 22 98 40 36 b6 15 03 00
       0.00040051187 3.0766165e-05 2.8698782e-06 2.83295e-40
000060 14 00 00 00 04 00 00 00 0e ed 80 0f a8 78 09 23
       2.8e-44 6e-45 1.2713085e-29 7.452335e-18
000070 42 ec 44 09 94 15 00 00 a9 99 cc 39 8c cc 19 00
       2.370373e-33 7.741e-42 0.00039024398 2.369265e-39

weight f4 [64, 32, 3, 3]
000000 c2 d5 67 b2 e6 ef 17 27 38 e5 80 b4 dd 85 94 a8
       -1.3494573e-08 2.1085509e-15 -2.4008637e-07 -1.6489355e-14
000010 ec fd 95 2a b4 1b 67 a5 c6 c0 f9 2f f9 77 2f 31
       2.664391e-13 -2.0045442e-16 4.542981e-10 2.5534048e-09
000020 40 1f a5 32 de ef 28 2c 16 3c df a6 d2 76 ee a4
       1.9222739e-08 2.400739e-12 -1.549002e-15 -1.03417336e-16
000030 94 33 50 2e 8b 13 74 26 a6 0f 74 2b 24 6a d2 ab
       4.7339535e-11 8.468099e-16 8.670793e-13 -1.4950857e-12
000040 7a 7d 05 af 5a 40 bf a9 b6 8e 50 b2 9f 97 d3 a9
       -1.2140858e-10 -8.493267e-14 -1.2139642e-08 -9.3965844e-14
000050 25 17 51 b2 d4 6e 25 b4 50 4f 41 ae e7 1b 12 33
       -1.2170664e-08 -1.5407142e-07 -4.3953563e-11 3.401865e-08
000060 65 f9 42 2d ba c5 c4 b1 37 07 ae b3 3d 95 be 2a
       1.1083e-11 -5.7268297e-09 -8.103819e-08 3.3854335e-13
000070 23 9d 7d 27 90 02 ea a6 97 1f 91 ab 95 43 64 2f
       3.5195987e-15 -1.6237706e-15 -1.0311638e-12 2.0760489e-10
000080 8f 5b 35 27 a1 84 2c 2a d9 65 76 af 23 d6 0c 30
       2.516843e-15 1.5322684e-13 -2.2409753e-10 5.123601e-10
000090 d5 60 50 ae f8 8c 48 2e b0 c5 8c 2e 7c a1 d1 31
       -4.737973e-11 4.559994e-11 6.401579e-11 6.101059e-09
0000a0 3d a4 5b af c9 9a 68 ab 98 fc 26 33 ef bd 84 b5
       -1.9976283e-10 -8.2637765e-13 3.887962e-08 -9.890044e-07
0000b0 a9 41 7a 29 a3 ae 0b b1 9a cf 96 b5 b7 0d 10 30
       5.5568102e-14 -2.0326432e-09 -1.1236291e-06 5.2406385e-10
0000c0 44 67 54 a7 a7 a7 86 b2 81 07 59 32 b3 62 7a 2b
       -2.947689e-15 -1.5675893e-08 1.2632769e-08 8.8954815e-13
0000d0 26 48 7d ac 5d cb a6 35 2a 87 91 ad 5f 4f 52 30
       -3.5993513e-12 1.242715e-06 -1.6544616e-11 7.651035e-10
0000e0 12 ff 42 2d cb 28 0a 2f 59 e1 24 2f 27 17 89 2c
       1.108426e-11 1.256552e-10 1.4995773e-10 3.8963446e-12
0000f0 12 44 3a 31 b3 f6 bf b1 c5 29 ea a6 1f 56 f9 27
       2.7105256e-09 -5.586878e-09 -1.6248333e-15 6.9204756e-15
000100 d5 9f b7 33 60 dd 03 2c 6b 59 b1 2d 01 b2 80 23
       8.550675e-08 1.8739107e-12 2.016228e-11 1.3953175e-17
000110 fc 0a 85 a7 b9 61 a0 27 28 53 0b ae b6 40 21 2d
       -3.6926825e-15 4.451487e-15 -3.16788e-11 9.166159e-12
000120 2d 64 eb b2 c5 05 db b3 95 c0 ca 32 cd 71 d0 b3
       -2.7403155e-08 -1.0199032e-07 2.3603471e-08 -9.706455e-08
000130 69 c7 14 35 e6 1c 46 2d 97 3d 09 2c e2 c1 a1 30
       5.5424476e-07 1.1261414e-11 1.950306e-12 1.1769397e-09
000140 0f 2d 3b 32 48 93 82 30 b5 5b 11 b3 0e c2 73 b1
       1.0895078e-08 9.500605e-10 -3.384385e-08 -3.5471461e-09
000150 25 a9 d1 b1 4e d8 0a b3 c1 b5 b3 b3 d8 1e 98 ab
       -6.10193e-09 -3.2327357e-08 -8.368398e-08 -1.080881e-12
000160 fb c6 70 b3 22 3e 01 ae 2f 23 09 2b 1b 3a 07 26
       -5.6060326e-08 -2.938639e-11 4.8721004e-13 4.691628e-16
000170 3d 62 35 24 4a 39 0c b2 60 5c 79 a6 49 e6 73 af
       3.933133e-17 -8.1620986e-09 -8.651442e-16 -2.2182535e-10
000180 1c 86 6e b1 00 cc d5 29 2b 79 8c ac 6b 49 04 35
       -3.470979e-09 9.4944885e-14 -3.9924917e-12 4.928067e-07
000190 2c 06 5f a5 40 b8 0a ab 5c 75 a2 a8 a0 9c 54 ae
       -1.9344258e-16 -4.9283147e-13 -1.803651e-14 -4.834233e-11
0001a0 96 7e ef 26 28 58 5c a8 77 bf 8f 26 4e a8 34 2b
       1.6618268e-15 -1.2231569e-14 9.974515e-16 6.4182416e-13
0001b0 0a cd 50 b3 6a 1f 14 b1 a7 87 89 b2 c6 a1 ff 32
       -4.8615256e-08 -2.1554691e-09 -1.6010587e-08 2.9759473e-08
0001c0 b0 dc 94 b4 48 af 0d a8 be d6 4d a7 a5 e9 f7 b2
       -2.772772e-07 -7.86508e-15 -2.8565877e-15 -2.8860834e-08
0001d0 14 19 97 23 33 0b ba b4 58 0b ab ab 4d 3a b5 ac
       1.6382074e-17 -3.4653348e-07 -1.2153429e-12 -5.150802e-12
0001e0 65 95 a0 b4 f4 51 28 b3 2b 24 fa 27 ec 6b d4 b2
       -2.991102e-07 -3.9190084e-08 6.9428152e-15 -2.4729125e-08
0001f0 3c df 45 2c 37 58 fb 2e 22 19 68 b2 0a 74 93 b3
       2.8119304e-12 1.14298286e-10 -1.3509892e-08 -6.866328e-08
000200 e5 df b8 32 63 60 8a 2f d2 e3 c8 ad 5b 3b e7 2b
       2.1522235e-08 2.517054e-10 -2.283854e-11 1.6430012e-12
000210 0b 73 a3 af bc c1 2c b0 bc 96 e2 2c 76 19 27 2b
       -2.973127e-10 -6.284855e-10 6.440041e-12 5.936565e-13
000220 a8 3d 36 a8 2d 7a 0a aa da 81 26 b5 0c 25 de 27
       -1.0116399e-14 -1.229925e-13 -6.202878e-07 6.1657544e-15
000230 92 b5 09 27 21 37 1d b2 59 6c a9 ae a2 ce 21 a9
       1.9110999e-15 -9.151138e-09 -7.7044766e-11 -3.5928407e-14
000240 e5 a5 cd 32 7d 97 ae ae ac a9 0f a6 b8 46 bf a5
       2.3940581e-08 -7.9395136e-11 -4.984304e-16 -3.318114e-16
000250 82 70 58 af b3 f1 cc 28 92 86 d0 ad e6 5f 17 a5
       -1.9685056e-10 2.275337e-14 -2.3706623e-11 -1.3129654e-16
000260 7d 16 60 34 00 f6 94 30 82 73 90 ac 14 5f 13 32
       2.0869807e-07 1.0838335e-09 -4.10555e-12 8.578144e-09
000270 73 13 50 af 7f b4 1d b2 4e 33 1f 30 22 e1 2a 31
       -1.89244e-10 -9.179643e-09 5.791677e-10 2.486623e-09
000280 01 29 24 34 3b 90 9c 34 30 a6 c3 ad 4d ce 0c a5
       1.5288607e-07 2.9162206e-07 -2.2242735e-11 -1.2212962e-16
000290 b4 d3 40 2f 40 0f 0f a6 7d a5 9c a7 1a de 0a ad
       1.753751e-10 -4.963376e-16 -4.347812e-15 -7.893708e-12
0002a0 94 d5 58 a7 06 af 86 b3 f9 64 5e 25 7f 11 be 2e
       -3.0091803e-15 -6.271698e-08 1.9289641e-16 8.6433076e-11
0002b0 f1 db 09 ab 2d 45 84 af e3 23 50 25 98 2f 01 28
       -4.897741e-13 -2.4059812e-10 1.8053283e-16 7.171259e-15
0002c0 70 d4 02 a5 2a 3e 22 ac b3 df 02 31 b8 d0 48 b0
       -1.1347679e-16 -2.3056093e-12 1.9044648e-09 -7.3056183e-10
0002d0 a0 b8 86 b2 07 a9 0c ac a1 6b 98 ae f0 85 b0 b4
       -1.568361e-08 -1.9989026e-12 -6.9312785e-11 -3.2880007e-07
0002e0 b5 69 d3 34 2b 95 89 34 55 72 15 34 ea 7e 50 b0
       3.9378725e-07 2.5626773e-07 1.39183e-07 -7.5850315e-10
0002f0 37 4c b2 af bd 16 be b2 04 d4 64 aa a0 77 24 b1
       -3.2432165e-10 -2.2129251e-08 -2.0324026e-13 -2.393314e-09
000300 b6 9b 41 33 39 8a 8d aa 12 ac 44 2a 21 4a 06 b3
       4.5077932e-08 -2.5142543e-13 1.7467996e-13 -3.1266726e-08
000310 0d eb 6a ad 5c 6f b2 af 67 90 8f ae 57 3a b7 ae
       -1.3353552e-11 -3.2457137e-10 -6.528538e-11 -8.33224e-11
000320 7f 61 de 30 22 ca 38 30 ce e2 30 2f aa c3 de af
       1.6180336e-09 6.722606e-10 1.6087684e-10 -4.0520592e-10
000330 84 1c 03 2a 47 ba cf 2a f9 d6 f2 29 57 0e 86 27
       1.164503e-13 3.6899842e-13 1.0784251e-13 3.720802e-15
000340 f6 22 cd af 87 4e c3 33 98 c9 81 2c ef 36 52 2a
       -3.7314124e-10 9.094679e-08 3.688782e-12 1.8670806e-13
000350 5d 64 55 b4 09 80 45 af dd 9b ec 29 23 22 d3 a9
       -1.9873683e-07 -1.7962533e-10 1.0507543e-13 -9.376204e-14
000360 51 88 b0 2a 9f b9 c5 27 71 0c a6 2c 10 6c 4f b2
       3.135847e-13 5.4879735e-15 4.719385e-12 -1.2073556e-08
000370 36 0f 93 b1 be ac e2 a8 c9 57 19 2a 69 91 e1 a8
       -4.2799924e-09 -2.5165955e-14 1.3619586e-13 -2.504308e-14
000380 de c7 ac 2d 27 5f 3d a7 94 35 df 2f bc 85 84 29
       1.9642895e-11 -2.6280601e-15 4.0601533e-10 5.885177e-14
000390 7e d7 c7 a5 5b 60 82 32 af ce 8b 2e e0 93 e9 a9
       -3.466702e-16 1.517781e-08 6.3577026e-11 -1.0372931e-13
0003a0 56 1d a5 32 2b 6b aa ac 4f 2b 02 33 85 d2 7b 2a
       1.9221869e-08 -4.8435886e-12 3.0307373e-08 2.2366317e-13
0003b0 fd 9c 03 30 ec ad ca a6 61 fc 45 26 70 49 01 b3
       4.7880616e-10 -1.4063707e-15 6.869014e-16 -3.0101944e-08
0003c0 1e ea 04 2d b9 5d 84 ad 59 5f d6 27 1a 69 3b 2b
       7.555316e-12 -1.5048284e-11 5.950031e-15 6.6581604e-13
0003d0 a1 f5 f9 b2 a9 9b a2 32 38 eb 27 ae 16 f9 97 a6
       -2.9099114e-08 1.8930068e-08 -3.818032e-11 -1.0545245e-15
0003e0 e7 00 3f 2e 48 e3 52 a7 0e 4e 68 2d 1e 28 5c a6
       4.3429173e-11 -2.9266564e-15 1.3205005e-11 -7.63822e-16
0003f0 95 c6 d4 34 a2 33 ff 28 db 73 9f 2d 58 ee 45 30
       3.9632565e-07 2.833308e-14 1.8127657e-11 7.200689e-10

bias f4 [64]
000000 d9 8d 24 27 a5 1a 3e a8 c9 36 29 b3 64 13 c8 ad
       2.2836468e-15 -1.0552896e-14 -3.9398206e-08 -2.2745979e-11
000010 10 cd 79 29 06 e2 63 27 a4 e4 0f 28 95 39 bc b1
       5.546697e-14 3.1625106e-15 7.987673e-15 -5.4780664e-09
000020 3e ff cc 27 84 db 97 aa c8 f4 95 ae 5a 19 70 34
       5.689811e-15 -2.6975308e-13 -6.8192174e-11 2.2360965e-07
000030 52 fc 08 b4 4c 0d 57 b0 b9 c8 1d a7 62 32 f4 2f
       -1.275778e-07 -7.823544e-10 -2.1896939e-15 4.441914e-10
000040 c9 9e 21 aa cd c5 d0 ae 33 b8 e0 a9 81 21 98 b0
       -1.4354762e-13 -9.4938814e-11 -9.979552e-14 -1.1068978e-09
000050 8b dd 85 a8 4b 2a 97 af 89 3a 3f a9 93 c8 a4 2c
       -1.4862045e-14 -2.749679e-10 -4.246129e-14 4.6834286e-12
000060 19 aa 0c b5 29 46 31 af c4 b6 6f a8 b5 e4 19 b5
       -5.240159e-07 -1.6122982e-10 -1.3306796e-14 -5.7329754e-07
000070 a6 1b 94 a5 4b 7c 68 2a 09 9c ac 26 5b fb 21 af
       -2.5692643e-16 2.0648862e-13 1.1977191e-15 -1.4732164e-10
000080 e0 07 bd 31 44 06 20 2d a3 95 50 35 1a a2 0a ae
       5.5015192e-09 9.096338e-12 7.770379e-07 -3.1521542e-11
000090 2c 9b a8 35 02 b8 de b1 9f 2a 1e ac 03 19 d1 2e
       1.2562136e-06 -6.4819696e-09 -2.247681e-12 9.5086626e-11
0000a0 15 c0 e3 b3 94 73 66 a9 1c 29 3c 28 c3 62 fe 2d
       -1.0605451e-07 -5.1170507e-14 1.0445011e-14 2.8920316e-11
0000b0 29 65 ff ad c6 f2 aa a6 79 2f 05 2d 62 38 c3 2b
       -2.9035068e-11 -1.1861924e-15 7.570716e-12 1.3871233e-12
0000c0 36 42 c9 ab 2c fc eb b1 dc f1 22 ac 41 7b 88 33
       -1.4300286e-12 -6.868069e-09 -2.3155844e-12 6.355413e-08
0000d0 04 52 b3 34 ab ff ad 27 c0 19 a3 2a f0 ec 98 a9
       3.3401022e-07 4.829434e-15 2.8972484e-13 -6.791258e-14
0000e0 57 a8 1d a8 d9 34 10 26 bf 5a 0a 31 a5 ef 5f 26
       -8.751754e-15 5.003166e-16 2.0133226e-09 7.7693446e-16
0000f0 9f 53 a7 a7 57 8c d2 2f fa c7 d0 26 c1 e4 67 2c
       -4.6442473e-15 3.8298495e-10 1.4487103e-15 3.2954058e-12

weight f4 [64]
000000 e2 f0 39 b5 b2 65 f8 b2 52 a0 71 32 42 7f 89 31
       -6.92684e-07 -2.8917245e-08 1.4064499e-08 4.0016923e-09
000010 b3 d6 ad 34 6d 39 ec b0 01 d4 f8 b4 2e a6 13 af
       3.2379975e-07 -1.7187581e-09 -4.6347853e-07 -1.3428611e-10
000020 f9 b0 cc 31 eb a9 7f b2 99 3c 35 b4 40 ba 93 34
       5.957301e-09 -1.4881588e-08 -1.6878984e-07 2.7516398e-07
000030 5d 71 8b 30 25 67 0f 32 9f 1d c9 b0 72 49 92 34
       1.0145801e-09 8.347148e-09 -1.4633094e-09 2.7248058e-07
000040 ce 68 4c b3 4d 70 3c 32 39 a4 0f 31 29 b7 09 af
       -4.759277e-08 1.09685745e-08 2.0902589e-09 -1.2525149e-10
000050 61 01 d2 33 46 d8 23 33 d1 09 6b b3 ee 4f 16 b1
       9.779138e-08 3.8148094e-08 -5.472413e-08 -2.1873308e-09
000060 11 3a 02 3e 78 b4 fd b2 9b fb 72 b3 0b 8a 65 31
       0.12717463 -2.9535144e-08 -5.657385e-08 3.3402354e-09
000070 36 e4 ab 34 de e0 67 b1 8b 2c 1d b3 87 07 e4 2f
       3.2017277e-07 -3.3742746e-09 -3.6594923e-08 4.1478307e-10
000080 5d ac d2 b0 7b 9d 98 33 cf cd a0 30 51 6f f4 33
       -1.53285e-09 7.106697e-08 1.1700027e-09 1.1382384e-07
000090 7c 13 9a 3d 49 e4 f5 32 7a a5 ef 33 e3 05 1b b4
       0.075232476 2.8625566e-08 1.1159405e-07 -1.4437641e-07
0000a0 c7 7d bc 30 52 95 c2 ad c9 6d aa b4 08 0a 44 31
       1.3714548e-09 -2.2121558e-11 -3.1744847e-07 2.8527456e-09
0000b0 eb 42 e0 33 9f 6d 4c 30 4a 07 98 34 bc aa 2d 35
       1.0442985e-07 7.437055e-10 2.831751e-07 6.4695973e-07
0000c0 26 4d 34 32 f8 a0 97 2e 7a 44 b5 32 db d4 9b b1
       1.04949205e-08 6.895279e-11 2.1102313e-08 -4.5352926e-09
0000d0 81 2d 35 b1 f1 5c 7a b1 9a 31 11 b2 5c bc 4e b3
       -2.6364833e-09 -3.643262e-09 -8.451389e-09 -4.8134424e-08
0000e0 38 df 56 b2 c2 a6 4c b1 3f 94 7b b1 9c c1 9b 34
       -1.25071935e-08 -2.9780698e-09 -3.6609575e-09 2.901187e-07
0000f0 37 fb 3c b2 ce 0a 3e b3 ac 9d b4 33 d8 f8 10 b3
       -1.100016e-08 -4.424765e-08 8.4105835e-08 -3.3753935e-08

bias f4 [64]
000000 43 bd 0c b1 76 f4 f5 b1 75 32 24 33 2b 6d e7 b1
       -2.0480264e-09 -7.1582305e-09 3.8230116e-08 -6.735396e-09
000010 bb e2 98 2f de 46 f3 b3 97 a2 87 b3 a9 96 e6 af
       2.780974e-10 -1.132846e-07 -6.316002e-08 -4.1943807e-10
000020 6d 79 fe 2b 5a 9b a7 32 a5 56 57 b3 4e 15 e9 33
       1.8081488e-12 1.9512004e-08 -5.013739e-08 1.0853783e-07
000030 ea 95 a2 32 51 9e d1 32 1b 91 a7 ae 12 e7 d3 33
       1.8927455e-08 2.4402796e-08 -7.620057e-11 9.8674846e-08
000040 8f f4 7e b1 42 64 85 ae 41 fd 96 b0 12 08 41 b0
       -3.710088e-09 -6.065949e-11 -1.0985916e-09 -7.022446e-10
000050 89 8e 96 ae e2 72 4c b4 e8 3c 98 33 cf b7 88 b0
       -6.8465296e-11 -1.9040775e-07 7.08913e-08 -9.947544e-10
000060 1c 30 59 bd 50 cd da b5 59 b6 ef 31 24 6d 8f b1
       -0.053024396 -1.630202e-06 6.976546e-09 -4.1742556e-09
000070 14 e3 ea b2 1b 9b c3 b2 73 2c e2 b4 b6 f2 72 33
       -2.7344448e-08 -2.2771522e-08 -4.2128121e-07 5.656576e-08
000080 f0 e4 2e 33 28 70 ca b2 79 cc 12 b2 a1 f6 ca b2
       4.072075e-08 -2.3566898e-08 -8.54481e-09 -2.3628049e-08
000090 e3 66 fe 3c 5b f6 bb 2f 20 5f a6 32 f2 c2 9b 31
       0.03105492 3.4190148e-10 1.9368201e-08 4.5332564e-09
0000a0 22 83 85 2f 13 3a 07 b0 78 be 6e b3 72 4f 36 33
       2.4285735e-10 -4.919524e-10 -5.5586924e-08 4.2447432e-08
0000b0 09 a9 9f b1 12 fe 4e 30 05 04 1d b3 bc 50 7a 30
       -4.646726e-09 7.530342e-10 -3.6558067e-08 9.10642e-10
0000c0 f4 38 38 b3 20 9b 9d b0 76 63 0d 35 2a df 96 33
       -4.2892637e-08 -1.1467343e-09 5.267133e-07 7.0255126e-08
0000d0 00 4b d4 35 9b bf 1b af 4b eb 7b b0 78 7a 63 2e
       1.5817059e-06 -1.416524e-10 -9.164764e-10 5.17226e-11
0000e0 50 f3 0f 32 ad b2 17 b3 4f ad 88 b2 3f 6a 03 b4
       8.379018e-09 -3.5319932e-08 -1.5911295e-08 -1.2238978e-07
0000f0 a2 c6 ce 32 f4 9c f4 31 4d 82 e4 31 66 51 d8 30
       2.4071884e-08 7.119178e-09 6.650487e-09 1.5739203e-09

running_mean f4 [64]
000000 aa 1a 48 32 c7 29 72 31 a0 2b b4 32 65 c6 15 32
       1.1647595e-08 3.5239383e-09 2.0974596e-08 8.718051e-09
000010 b5 18 7c 32 db b5 80 32 05 b7 a1 31 be 86 47 32
       1.4673948e-08 1.498386e-08 4.7065236e-09 1.1613961e-08
000020 8d 83 1f 32 a5 3c 4f 32 d8 bb 7e 32 c7 79 f3 30
       9.284929e-09 1.2062775e-08 1.4827457e-08 1.7715188e-09
000030 9b d6 90 32 11 49 cd 31 91 d3 04 31 e4 7c 08 32
       1.6861398e-08 5.974592e-09 1.932879e-09 7.944639e-09
000040 42 59 18 32 a1 cc 00 32 48 4e 4e 32 c8 d0 a0 31
       8.867859e-09 7.497108e-09 1.2008577e-08 4.6803486e-09
000050 f3 ce 9b 31 30 26 a4 32 89 e1 9a 32 19 dd 76 32
       4.534621e-09 1.9109478e-08 1.8030521e-08 1.4369356e-08
000060 5a a9 1a 3b ba f7 19 32 05 72 32 32 95 20 47 33
       0.0023599477 8.962099e-09 1.0386889e-08 4.636293e-08
000070 59 01 74 32 90 83 ca 32 26 30 84 32 57 42 24 32
       1.4202976e-08 2.3575723e-08 1.5388718e-08 9.56114e-09
000080 27 3b 17 32 79 35 b9 32 ed b7 a6 b2 e2 62 4b 32
       8.8028065e-09 2.1561151e-08 -1.9408583e-08 1.18386385e-08
000090 1d 83 9a 3b 21 9b f4 31 6b 7d 15 32 65 ce 8d 32
       0.004715337 7.1189707e-09 8.701458e-09 1.6508418e-08
0000a0 70 d0 aa 32 71 f6 22 32 5e 1a aa 32 c7 98 2a 32
       1.9885391e-08 9.485675e-09 1.9802595e-08 9.93004e-09
0000b0 b5 e8 ef 31 1a a2 eb 31 41 be 58 32 88 25 05 32
       6.982271e-09 6.857829e-09 1.26161135e-08 7.7501525e-09
0000c0 96 bb 33 32 74 b7 aa 32 3c cf 64 32 6a 15 33 32
       1.0461823e-08 1.987403e-08 1.3318466e-08 1.042404e-08
0000d0 ca 40 a7 b2 41 d2 f3 31 fb e3 4d 32 19 78 13 32
       -1.9470821e-08 7.096134e-09 1.1984407e-08 8.583833e-09
0000e0 e3 17 2b 32 fa c8 a1 32 08 8c 31 32 49 a8 14 32
       9.958941e-09 1.883426e-08 1.0334595e-08 8.652997e-09
0000f0 28 5b f0 31 53 26 83 32 bf 11 cd 32 d2 ed 34 32
       6.9952826e-09 1.5267835e-08 2.3873211e-08 1.0531453e-08

running_var f4 [64]
000000 71 b6 e1 26 45 33 08 26 45 a6 00 27 40 84 4b 26
       1.5661962e-15 4.725396e-16 1.7853703e-15 7.0609005e-16
000010 ec 60 bd 26 86 52 0b 27 61 d2 3a 26 81 b4 9e 26
       1.314078e-15 1.9334861e-15 6.481683e-16 1.1012378e-15
000020 a3 ee 57 26 94 38 5b 27 bb 42 4b 27 23 f1 97 26
       7.491652e-16 3.0423026e-15 2.8208084e-15 1.054309e-15
000030 70 4d b9 26 4f 2b 1b 26 16 9a d5 25 c7 c1 99 26
       1.2857943e-15 5.383512e-16 3.7054023e-16 1.0669031e-15
000040 52 d4 8a 26 65 dd 5c 26 48 32 bd 26 8d 54 e5 25
       9.633223e-16 7.662788e-16 1.3128138e-15 3.9782461e-16
000050 4f 6e e9 25 09 07 60 27 36 3f f5 26 08 90 00 27
       4.0493805e-16 3.1090058e-15 1.7017423e-15 1.7841648e-15
000060 f2 7d b0 36 f8 01 9a 26 16 3d 2b 27 f6 fa a0 26
       5.2598707e-06 1.068643e-15 2.3764132e-15 1.1170253e-15
000070 10 c8 aa 27 53 22 77 27 1e 9f f6 26 d1 96 9b 26
       4.7401387e-15 3.4296743e-15 1.7112808e-15 1.0796164e-15
000080 af 8d 9a 26 89 6b 67 27 2f ba 4b 27 a9 40 b5 26
       1.07243e-15 3.2115985e-15 2.827284e-15 1.2576924e-15
000090 2d 76 d0 36 99 d9 5f 26 59 c9 38 26 a5 3d cd 26
       6.2126405e-06 7.7663567e-16 6.41107e-16 1.4241441e-15
0000a0 03 82 e6 26 c7 9b 8d 26 c8 30 51 27 b4 29 7b 26
       1.5994696e-15 9.826064e-16 2.903102e-15 8.7139637e-16
0000b0 b5 a0 f5 25 13 86 f0 25 ec 82 3f 27 1e b3 8c 26
       4.2609624e-16 4.1724216e-16 2.6577548e-15 9.763001e-16
0000c0 50 57 a0 26 28 23 23 27 67 36 2f 27 4e 19 f2 26
       1.1125896e-15 2.2639852e-15 2.431562e-15 1.6798982e-15
0000d0 f4 aa d1 26 2c 99 ec 25 10 7a fe 26 cc 3d 6f 26
       1.4548625e-15 4.1043267e-16 1.7657876e-15 8.300353e-16
0000e0 dc 34 76 26 51 16 3d 27 bc 30 83 26 0b 88 28 26
       8.5420033e-16 2.6241117e-15 9.10316e-16 5.847108e-16
0000f0 fd 7f 24 26 80 e7 cd 26 15 4d 4b 27 f4 fc 1e 27
       5.7072386e-16 1.4287481e-15 2.8213696e-15 2.206403e-15

weight f4 [32, 64, 3, 3]
000000 c1 9a 1c b3 93 be 06 28 94 b9 2b a9 98 c1 4a 31
       -3.646233e-08 7.4798185e-15 -3.813059e-14 2.9504914e-09
000010 b2 d9 62 a9 88 43 1e af f1 b0 df b1 cc 5e 86 a4
       -5.03709e-14 -1.4394008e-10 -6.51027e-09 -5.827383e-17
000020 72 0a 90 a5 49 aa 4f ab a0 6f 27 34 7b 4b 05 2c
       -2.4987096e-16 -7.377749e-13 1.5593696e-07 1.8942337e-12
000030 d9 f8 d2 24 b2 fc 50 a8 ba 8d f4 2e d7 84 35 ae
       9.149455e-17 -1.1601114e-14 1.1121011e-10 -4.127262e-11
000040 0b e4 9b 26 4f 1d 23 34 2a 46 47 ae e2 d8 13 2e
       1.0817097e-15 1.519122e-07 -4.530968e-11 3.361656e-11
000050 70 6a 95 34 77 54 54 af f5 a7 1f a8 b6 b2 b1 25
       2.7830856e-07 -1.9311296e-10 -8.862693e-15 3.0825705e-16
000060 d6 71 e4 aa 7f 26 58 b3 d8 f7 32 29 c2 39 82 a7
       -4.0579925e-13 -5.032643e-08 3.973891e-14 -3.614487e-15
000070 37 5d c4 27 1f 8d 44 b3 1c 5f b8 af c5 c8 4a b0
       5.450199e-15 -4.5763155e-08 -3.3536984e-10 -7.377248e-10
000080 29 9f 65 32 06 bb d8 2f c2 12 4d 25 be 25 e6 2a
       1.3365743e-08 3.942306e-10 1.7787271e-16 4.0882396e-13
000090 3b f2 b2 26 d5 57 ad b4 68 57 b1 a7 ce 95 c9 28
       1.2416888e-15 -3.2287667e-07 -4.9222135e-15 2.238045e-14
0000a0 84 cb b0 a6 22 0b 53 a6 d6 aa 83 2c f2 87 71 29
       -1.2267616e-15 -7.322042e-16 3.7422105e-12 5.3630664e-14
0000b0 5c 8f ed 34 04 d6 ec 2a 09 04 98 31 a5 ff b9 27
       4.4248998e-07 4.2070525e-13 4.424241e-09 5.1624985e-15
0000c0 b5 d6 18 a5 4e 4f a5 28 32 0e 98 27 9f 8e bc b5
       -1.3256644e-16 1.8353073e-14 4.2203866e-15 -1.40486e-06
0000d0 2a b5 82 ad f0 39 5e a4 31 76 5c 2e 52 85 16 2a
       -1.4859742e-11 -4.818765e-17 5.0127184e-11 1.3368931e-13
0000e0 7c 09 4e aa 26 aa b6 26 db 25 af a5 48 55 2f ad
       -1.8299766e-13 1.2674906e-15 -3.0383313e-16 -9.9665345e-12
0000f0 9c 04 75 ab 00 86 ee ab 6c 33 d3 27 64 b6 77 a6
       -8.704788e-13 -1.694811e-12 5.8620016e-15 -8.5942525e-16
000100 ea 99 06 a8 23 0b 88 2c e2 b7 05 2c 54 bf 49 aa
       -7.471869e-15 3.866589e-12 1.9002512e-12 -1.7918767e-13
000110 e9 b6 73 ae 68 cb d7 2f 7c 97 90 a6 a1 c4 4c a5
       -5.541426e-11 3.92528e-10 -1.0033067e-15 -1.77608e-16
000120 0a c7 7b 32 60 6c 52 ab a9 99 48 a5 d0 f9 0b 29
       1.4655379e-08 -7.475739e-13 -1.7399297e-16 3.1080878e-14
000130 45 fe 58 af d2 39 09 b3 e8 b1 6c b1 7d ac b7 2b
       -1.973542e-10 -3.1950385e-08 -3.4443648e-09 1.3050807e-12
000140 6b 39 91 ad 6d 93 9c 28 21 40 5e 28 c2 d8 dc a7
       -1.651009e-11 1.7383415e-14 1.2337381e-14 -6.1297276e-15
000150 4b ee 6f b3 16 58 35 ad 97 7f 7b 30 1a 36 e5 32
       -5.586325e-08 -1.0308218e-11 9.1494584e-10 2.6683711e-08
000160 f1 67 27 ad 8e ad f5 ad 8e b9 ae a6 01 79 66 a5
       -9.515931e-12 -2.7930349e-11 -1.212397e-15 -1.9990318e-16
000170 ee 06 0b ab 1f ce a1 2c 1c e1 89 2d 98 e5 72 ab
       -4.9392337e-13 4.5987793e-12 1.5675065e-11 -8.6294296e-13
000180 88 cf f1 a5 af 53 ba ac 75 60 9a a9 a4 84 7d 32
       -4.1947464e-16 -5.2957287e-12 -6.8557065e-14 1.4756697e-08
000190 91 72 cf 35 0a 63 1c 34 e2 3f 3f a6 5a c8 11 a5
       1.5456045e-06 1.4564662e-07 -6.6353014e-16 -1.2644627e-16
0001a0 8d d7 4c 29 f2 aa 4a 29 28 c8 8c 34 8b b3 11 ac
       4.548406e-14 4.500128e-14 2.6222665e-07 -2.0705406e-12
0001b0 fd 08 9f b3 2e 29 eb 31 70 e3 6e 2d 59 e2 81 2a
       -7.4056494e-08 6.8440817e-09 1.3579235e-11 2.3072063e-13
0001c0 aa 96 fa ad 1b e3 82 a6 66 a5 3a ad 90 8d cb a6
       -2.8488618e-11 -9.082119e-16 -1.0609602e-11 -1.4124325e-15
0001d0 ad 0a 47 32 dd fa ad 33 77 a4 1c b0 12 45 19 af
       1.1585752e-08 8.101572e-08 -5.698619e-10 -1.3939808e-10
0001e0 9e ff 87 a8 ab 85 db af 9f e3 8e ad 03 6d 61 2c
       -1.5098867e-14 -3.9930845e-10 -1.6244615e-11 3.2034937e-12
0001f0 b5 af e5 a7 d3 7f 92 b1 de b7 7b b1 62 de bb af
       -6.375077e-15 -4.263691e-09 -3.6629824e-09 -3.4173114e-10
000200 48 bf 86 2c ad 1f b7 29 1b b0 b9 ac 52 00 47 b0
       3.8297455e-12 8.1323274e-14 -5.277568e-12 -7.2396233e-10
000210 eb 42 f6 26 b0 dd 5c 29 40 b7 e7 a6 89 ae 45 2b
       1.7087817e-15 4.9042096e-14 -1.6078515e-15 7.0230676e-13
000220 b2 1f bd 30 fa a7 4c ab 27 b8 aa ad 6d 60 c2 a8
       1.3760568e-09 -7.2708473e-13 -1.9408542e-11 -2.1580145e-14
000230 a4 85 1f b1 47 c5 28 27 e1 75 64 b2 be 69 f1 b1
       -2.3213511e-09 2.3421628e-15 -1.3298149e-08 -7.0260446e-09
000240 d9 df 3a 27 56 98 e7 2a 86 0f 1d 27 8a 2c 4a b2
       2.5934033e-15 4.1139547e-13 2.1796542e-15 -1.17680745e-08
000250 6c 76 89 b0 0a ca 84 34 64 a2 29 33 89 7a ba b1
       -1.000172e-09 2.473392e-07 3.9496072e-08 -5.427243e-09
000260 e7 31 20 2f 3e a8 0d ad c1 0c 5a 34 d8 2b ad b0
       1.4569644e-10 -8.052279e-12 2.0307472e-07 -1.2599868e-09
000270 cb 01 4b b3 44 bb 09 a8 5c 85 9c b3 db e8 19 a7
       -4.726625e-08 -7.6456345e-15 -7.288574e-08 -2.1359247e-15
000280 89 36 31 33 d9 46 70 30 a9 a0 36 ac a8 aa 8f 2b
       4.1260623e-08 8.741217e-10 -2.595294e-12 1.0208128e-12
000290 93 6a da 31 ae 09 64 26 3b 40 e6 2a 28 8a 1d 29
       6.356751e-09 7.911651e-16 4.0900776e-13 3.4980834e-14
0002a0 75 f1 fc 30 b2 05 ef a7 3b 58 9d a9 50 18 be a6
       1.8404039e-09 -6.6342e-15 -6.987506e-14 -1.3190488e-15
0002b0 e7 e6 d2 b0 3f f4 91 31 d5 6a 65 b1 3f 10 b9 2d
       -1.5345137e-09 4.247823e-09 -3.3384613e-09 2.103928e-11
0002c0 51 42 01 2b b1 11 b8 26 36 38 0d 29 47 fb 31 af
       4.592204e-13 1.277236e-15 3.1357045e-14 -1.6187328e-10
0002d0 52 e5 13 29 18 f7 d3 b3 26 14 82 af 8c 6f 17 2c
       3.283946e-14 -9.870399e-08 -2.3661179e-10 2.1520312e-12
0002e0 3a 2b 58 2a 3e ea a5 26 18 a5 38 2d 6b 41 e9 2a
       1.9199651e-13 1.1512666e-15 1.0495847e-11 4.1434507e-13
0002f0 d0 af 5d 2d 33 35 2e a7 fc 87 0b b0 52 16 0d b0
       1.2601434e-11 -2.417619e-15 -5.076115e-10 -5.132722e-10
000300 f2 35 15 ad 27 34 ae 26 7f 64 5e ac f6 21 2f ab
       -8.481648e-12 1.2087811e-15 -3.1603884e-12 -6.221962e-13
000310 e0 b5 3d 31 17 6e 52 ae 07 04 d0 2a 75 77 49 af
       2.7606504e-09 -4.784625e-11 3.6951017e-13 -1.8323283e-10
000320 13 3b 01 32 b3 f4 bc a8 c4 f2 e9 29 19 8f a4 2b
       7.52222e-09 -2.0978314e-14 1.0389392e-13 1.1692618e-12
000330 ce 42 00 b3 02 78 55 27 08 26 94 2c 84 c8 c4 b1
       -2.986308e-08 2.9624744e-15 4.2106353e-12 -5.7271468e-09
000340 b3 ba 9a 24 96 bd 2a a6 3e dd 6f 29 a2 2d b6 31
       6.7103135e-17 -5.9237535e-16 5.3260558e-14 5.302085e-09
000350 3b d3 36 31 cd 90 62 ad dc 0e a7 b1 34 6f 0b 27
       2.6604556e-09 -1.2878765e-11 -4.862029e-09 1.9350408e-15
000360 f8 46 26 2b 37 a5 81 ae 9e 1e aa 2c ec 2d e0 27
       5.9073536e-13 -5.895589e-11 4.83509e-12 6.222228e-15
000370 01 d6 14 ab c7 67 96 28 a1 0b 24 2b 49 8f 0c a9
       -5.287715e-13 1.6698352e-14 5.828064e-13 -3.1210525e-14
000380 04 4b 68 29 53 14 98 27 b0 ac be ac e6 a6 3f b4
       5.1579414e-14 4.221051e-15 -5.419297e-12 -1.7848978e-07
000390 30 3a 32 31 04 2d b3 2d 2f c4 ca b4 f5 bb f8 b3
       2.5935485e-09 2.0369935e-11 -3.7768174e-07 -1.1582589e-07
0003a0 34 b5 57 b0 e4 63 1b a6 d2 76 b0 28 54 f8 24 25
       -7.847405e-10 -5.3911805e-16 1.9591455e-14 1.430887e-16
0003b0 86 af 4b b1 e4 79 a0 30 42 20 eb 25 ba 74 85 2a
       -2.9640161e-09 1.1676176e-09 4.078786e-16 2.370654e-13
0003c0 1e a6 e1 ab c7 c8 9a b0 3c 54 20 b1 6c b8 08 2d
       -1.6033318e-12 -1.1262039e-09 -2.3330946e-09 7.771655e-12
0003d0 29 d1 23 29 74 58 a3 2e 78 b1 30 30 c0 ab 87 ae
       3.6374688e-14 7.428094e-11 6.4280625e-10 -6.169598e-11
0003e0 f3 b7 7e ab 16 9b 2c b0 4a 8e 80 25 d5 58 01 32
       -9.049421e-13 -6.2793626e-10 2.230088e-16 7.528986e-09
0003f0 b6 2b 30 27 53 3b 9e a7 17 8c 4d 28 d0 ed 66 b0
       2.4448602e-15 -4.391813e-15 1.1410163e-14 -8.4011464e-10

bias f4 [32]
000000 6c f9 c4 a9 b2 c1 50 af 93 37 0d b1 4d 93 95 b4
       -8.747416e-14 -1.8986304e-10 -2.054979e-09 -2.7860588e-07
000010 94 8e 0c ad f7 48 fc a8 ee 79 82 b0 a2 94 0f 29
       -7.989737e-12 -2.8009264e-14 -9.493399e-10 3.1881297e-14
000020 42 87 bc 29 f7 01 59 b3 4d 4e 05 b4 b9 2c a4 b1
       8.3723406e-14 -5.0526037e-08 -1.2415076e-07 -4.7781126e-09
000030 f1 b5 2b b3 72 99 2b b0 88 ca 04 36 4c db 36 b1
       -3.9979515e-08 -6.2427497e-10 1.9787421e-06 -2.6609142e-09
000040 5e 75 96 28 aa 3d 15 a7 b2 05 53 2e ab e3 15 a8
       1.6704245e-14 -2.0711332e-15 4.7980904e-11 -8.320529e-15
000050 12 b4 64 35 29 24 17 2f a7 3d be a8 c7 d2 81 b3
       8.5198656e-07 1.3746217e-10 -2.1120975e-14 -6.045371e-08
000060 d5 4e 4b 2e 25 79 60 2a 7d 45 23 2d ab a7 3b 30
       4.6226873e-11 1.9937227e-13 9.280907e-12 6.8268474e-10
000070 fe b6 33 29 e9 a2 f7 25 20 4d e7 26 64 ed bb b1
       3.9904705e-14 4.2958062e-16 1.604975e-15 -5.4694045e-09

weight f4 [32]
000000 5b dc 0f b2 8a ac bc 2f 70 c5 cf af 9a ad 31 3e
       -8.3737985e-09 3.4319597e-10 -3.7793368e-10 0.1735138
000010 89 57 8c ab dd b7 9f ac 57 0d 40 a8 ce 72 60 af
       -9.971894e-13 -4.5394647e-12 -1.0661034e-14 -2.0413468e-10
000020 fe bd 4c a7 80 5c 07 31 43 f1 47 b1 cc 85 61 b2
       -2.8413682e-15 1.9697666e-09 -2.9095453e-09 -1.3127146e-08
000030 d8 18 ac 2f 53 0e 8a 2b 00 61 f2 3e ba 7c 60 ab
       3.130427e-10 9.809466e-13 0.4733963 -7.975388e-13
000040 d9 6a ba 2d 32 dd 71 33 5a d1 49 b5 22 ba 97 34
       2.1193202e-11 5.631336e-08 -7.518298e-07 2.826137e-07
000050 13 98 8d 32 e9 92 8e af b6 12 8d a9 db 77 33 aa
       1.6483716e-08 -2.5934035e-10 -6.264904e-14 -1.5939977e-13
000060 7b 6f 79 b1 e9 66 88 ac 83 1e 47 31 33 94 19 b4
       -3.6297638e-09 -3.876778e-12 2.8975655e-09 -1.430315e-07
000070 ba 17 0b 30 30 55 ab 2f 45 9a c1 ad 46 20 f6 aa
       5.0601623e-10 3.1165248e-10 -2.2010069e-11 -4.3720772e-13

bias f4 [32]
000000 1b f6 64 aa e1 59 91 b8 dd cf 64 28 3c 57 81 3e
       -2.0335853e-13 -6.93088e-05 1.2701616e-14 0.25261867
000010 38 7c 44 a5 66 f6 bf 27 f6 e4 91 a8 bb 16 15 36
       -1.7042377e-16 5.3280295e-15 -1.619753e-14 2.221596e-06
000020 a6 9e 55 29 98 76 2a ab a1 cc 3b 2a 43 b4 db 26
       4.7433106e-14 -6.0560714e-13 1.6679931e-13 1.5245038e-15
000030 54 a0 17 ac af 4e b2 a8 e0 87 ca 3d c0 10 c3 a9
       -2.154739e-12 -1.9796093e-14 0.09889197 -8.662645e-14
000040 47 49 9b 23 2c 95 7a aa ef fd 8c 33 f4 a5 f2 aa
       1.6836168e-17 -2.2256215e-13 6.565448e-08 -4.3102989e-13
000050 ba 07 27 37 9b 2b 28 af 0c 2e 24 a3 b5 58 c4 ac
       9.955775e-06 -1.5295003e-10 -8.900209e-18 -5.5805035e-12
000060 e9 84 77 3a d9 cb 7e ab df 6e 2e 2b d6 ae 01 b2
       0.00094421074 -9.0521823e-13 6.197108e-13 -7.548541e-09
000070 91 c2 5f 33 23 d2 9e b4 e2 b8 2b af 8a 95 ab 3a
       5.209819e-08 -2.9582688e-07 -1.5618043e-10 0.0013090831

running_mean f4 [32]
000000 d8 12 1a 32 36 60 0b 32 51 39 95 30 9e bc 29 3c
       8.968264e-09 8.112741e-09 1.0857467e-09 0.010359911
000010 99 d5 4a 32 45 63 58 32 05 62 05 32 ca 7e b2 31
       1.1806514e-08 1.2595426e-08 7.763906e-09 5.194896e-09
000020 c7 7f 7c 32 1e ae 7f 31 a9 77 28 32 58 79 93 31
       1.4697384e-08 3.7206358e-09 9.806095e-09 4.2920583e-09
000030 ad d5 a3 31 56 f1 9f 31 34 9e 4c 3b 77 8f 1d 32
       4.7682165e-09 4.6549458e-09 0.0031222226 9.171223e-09
000040 7f 79 98 31 cb 78 30 32 3a 57 75 31 03 14 41 32
       4.4375947e-09 1.02720135e-08 3.5701775e-09 1.1238629e-08
000050 77 35 d6 b2 b9 59 df 31 d9 8e 4d 32 ed c6 8b 31
       -2.4937192e-08 6.5003545e-09 1.196505e-08 4.0680477e-09
000060 f1 55 5d 30 cc 3f df 31 5f f5 f5 31 e0 c2 a2 31
       8.052146e-10 6.497407e-09 7.158334e-09 4.7369753e-09
000070 79 5c 15 32 05 f8 1b 32 d4 db ad 31 d9 2a a8 2f
       8.693967e-09 9.0785806e-09 5.0599542e-09 3.0589467e-10

running_var f4 [32]
000000 38 e7 1b 26 df 94 2f 26 8d 17 dc 23 c9 4c 0a 38
       5.408979e-16 6.091708e-16 2.3862422e-17 3.2973276e-05
000010 90 68 48 26 ce db 32 27 a7 84 01 27 a2 58 c5 25
       6.953065e-16 2.4821619e-15 1.7974257e-15 3.4234112e-16
000020 95 7f c9 26 38 84 c5 24 d7 8b 87 25 15 98 44 25
       1.3981758e-15 8.565912e-17 2.3513526e-16 1.7051817e-16
000030 0f 54 fd 25 cd a2 cc 25 bc e4 de 38 63 8b fb 26
       4.3945464e-16 3.5498677e-16 0.0001062839 1.7454405e-15
000040 3b 61 5d 25 c3 0f 0b 27 c7 73 50 26 36 eb 80 26
       1.9201637e-16 1.929867e-15 7.2321404e-16 8.945538e-16
000050 bf 1d 46 26 69 aa df 25 e9 ae 06 27 b7 2e 22 25
       6.8735363e-16 3.8799808e-16 1.8691055e-15 1.4067088e-16
000060 73 a7 24 24 c9 e7 4c 26 80 c1 a1 25 18 7e 2c 26
       3.5703666e-17 7.1090845e-16 2.8060169e-16 5.9845376e-16
000070 08 b6 1c 26 7e a6 49 26 e5 5e a7 26 2f 11 d9 16
       5.437007e-16 6.9961523e-16 1.1613674e-15 3.5069085e-25

weight f4 [2, 23328]
000000 40 04 85 27 68 e3 76 27 9f 99 91 27 2a 0e 88 27
       3.6919523e-15 3.4262635e-15 4.041214e-15 3.776294e-15
000010 8a b7 90 27 50 2b ea 26 e0 ea 04 27 3a f9 5e 27
       4.0167022e-15 1.6248752e-15 1.8446006e-15 3.0943795e-15
000020 f7 40 6d 27 b5 01 81 27 9d 2a 8e 27 0c ce 79 27
       3.2925575e-15 3.5806543e-15 3.945912e-15 3.466739e-15
000030 d8 08 91 27 2e 10 91 27 b1 34 11 27 fa a9 b8 26
       4.0255173e-15 4.0263127e-15 2.0151356e-15 1.2813637e-15
000040 85 29 2b 26 45 6f c7 26 f9 df 06 26 43 87 a6 24
       5.938381e-16 1.3838559e-15 4.679413e-16 7.2220167e-17
000050 f3 e3 67 25 a7 1d b5 26 da 72 82 27 67 39 82 27
       2.0113288e-16 1.2567435e-15 3.620677e-15 3.6144484e-15
000060 a1 4a 2e 27 f9 01 a7 27 80 9b 11 27 79 24 bb a6
       2.4187807e-15 4.635395e-15 2.020709e-15 -1.2985618e-15
000070 bc 60 ca 26 2f 5c 50 27 f7 a3 65 27 49 13 da 26
       1.4042786e-15 2.8915771e-15 3.186902e-15 1.5132016e-15
000080 ee 26 35 27 43 bb 6d a6 19 c5 0c 27 e5 cd 81 27
       2.51399e-15 -8.247968e-16 1.953575e-15 3.6027924e-15
000090 e4 19 91 27 fb 8e 89 27 ae 9b 90 27 ec 14 98 27
       4.0273655e-15 3.818016e-15 4.0136817e-15 4.221116e-15
0000a0 03 d8 ae 27 71 9e 95 27 3a 4d 53 27 a2 14 62 27
       4.85289e-15 4.152759e-15 2.9323997e-15 3.1374986e-15
0000b0 05 fb 3a 27 3a 08 10 27 d5 8e 1c 27 bf 71 d7 26
       2.5948763e-15 1.9988474e-15 2.1726778e-15 1.4949453e-15
0000c0 b2 8a 5a 27 57 3f c5 27 40 b5 db 27 9d cf fa 27
       3.0328764e-15 5.4747157e-15 6.0981222e-15 6.9614034e-15
0000d0 fc 6f 1f 28 cb fb 7a 27 da 70 f2 26 56 bb 74 23
       8.850556e-15 3.4830967e-15 1.6822712e-15 1.32669364e-17
0000e0 d9 e6 19 28 8f af 37 28 44 eb 9e 27 66 c6 e0 a6
       8.543263e-15 1.0196609e-14 4.4108885e-15 -1.5596898e-15
0000f0 12 4e 0f a7 ec 70 ab 27 82 ff a3 27 0a f3 bd 27
       -1.9887559e-15 4.7584464e-15 4.551861e-15 5.272154e-15
000100 74 9c 9c 27 25 ae ae 27 57 f1 bf 27 74 f4 a0 27
       4.3468325e-15 4.848351e-15 5.327481e-15 4.4673958e-15
000110 c0 78 f6 26 dd 28 83 26 82 3f 11 27 fb 6d b1 26
       1.7102408e-15 9.101027e-16 2.015722e-15 1.2311652e-15
000120 62 ac b1 26 82 a4 2d 26 c4 b3 0e 27 a5 fa 08 27
       1.2328567e-15 6.024438e-16 1.980391e-15 1.9009666e-15
000130 d3 f9 62 27 7f 9f 86 27 5e f9 c6 27 bf 90 c2 27
       3.149923e-15 3.7365397e-15 5.5226404e-15 5.400275e-15
000140 26 c6 b2 25 41 17 31 27 14 75 de 26 ec af 02 28
       3.1012348e-16 2.457629e-15 1.5436079e-15 7.254597e-15
000150 b3 6f 12 28 e1 bf d5 27 e2 99 11 27 40 e9 75 27
       8.128849e-15 5.932741e-15 2.0206212e-15 3.4127025e-15
000160 c3 86 ba 27 68 41 03 28 6c 1e e9 27 ae 09 e6 27
       5.177148e-15 7.2861435e-15 6.4703475e-15 6.384832e-15
000170 31 cf ed 27 4e 37 e6 27 b6 27 e3 27 8a 97 01 28
       6.600535e-15 6.3897785e-15 6.304821e-15 7.193798e-15
000180 22 a7 55 27 22 5c 8b 27 be 87 31 27 c1 59 15 27
       2.965029e-15 3.868014e-15 2.463727e-15 2.072656e-15
000190 89 6b 27 26 c7 22 d9 26 ab 03 48 27 2c f9 a5 27
       5.80855e-16 1.5066826e-15 2.7757564e-15 4.6066852e-15
0001a0 20 68 8d 27 e1 10 a5 27 03 aa af 27 87 ba 84 26
       3.9248254e-15 4.5815e-15 4.8756584e-15 9.209898e-16
0001b0 2c 51 c4 27 58 4b 72 27 2d 93 6e 27 25 1e d4 27
       5.4488935e-15 3.362509e-15 3.310892e-15 5.8874503e-15
0001c0 4f 00 8b 27 57 ef 57 27 f1 1c b3 27 c0 bd b3 27
       3.8580585e-15 2.996699e-15 4.971386e-15 4.9888208e-15
0001d0 6c 4f cd 27 57 1b a4 27 f0 80 dc 27 d7 c0 bf 27
       5.698504e-15 4.5548786e-15 6.120206e-15 5.3222227e-15
0001e0 92 16 9a 27 66 1e d0 27 40 72 64 27 ac 96 90 27
       4.2768057e-15 5.7764555e-15 3.1703291e-15 4.0131388e-15
0001f0 db 39 84 27 eb a4 fc 26 00 38 fa 26 ff 42 56 27
       3.6700087e-15 1.7530714e-15 1.7362414e-15 2.9734785e-15
000200 49 e6 2f 27 cd 48 ac 27 38 e1 de 27 cf f5 92 27
       2.4410966e-15 4.781852e-15 6.186156e-15 4.0789647e-15
000210 5c bb c9 27 bb 9c f7 27 0b 79 0c 27 2d c0 2a 27
       5.5991842e-15 6.87262e-15 1.949452e-15 2.3696418e-15
000220 d9 a4 cb a4 07 16 a5 26 cd 7d e3 27 a1 0c d3 27
       -8.831648e-17 1.1455145e-15 6.314155e-15 5.8577957e-15
000230 7c b4 ce 27 16 91 96 27 ed 19 b1 27 66 0b 05 27
       5.7372167e-15 4.1790666e-15 4.9155478e-15 1.8463637e-15
000240 ea df a7 27 aa 71 da 27 f0 10 88 27 43 72 b8 27
       4.659458e-15 6.063039e-15 3.7765947e-15 5.119414e-15
000250 33 d2 a8 27 7d 5b cf a5 94 8e 36 a6 66 ca 52 27
       4.6857265e-15 -3.597077e-16 -6.3337164e-16 2.9253075e-15
000260 aa cb e9 26 48 75 1d 27 ef 05 fc 26 a2 7e 4a 27
       1.6222826e-15 2.1851705e-15 1.7487621e-15 2.810178e-15
000270 ff 4e 2c 27 66 19 a7 27 a2 fb 2f 27 d3 6b 8d 27
       2.3912619e-15 4.637935e-15 2.442254e-15 3.9252265e-15
000280 bf 92 d8 27 e6 68 01 a7 16 b4 7d 26 ae 1e c3 a2
       6.0111146e-15 -1.7959212e-15 8.802107e-16 -5.288734e-18
000290 32 d3 2a 26 28 05 a7 27 1b 31 9e 27 14 33 8d 27
       5.926682e-16 4.63574e-15 4.390705e-15 3.919074e-15
0002a0 42 aa 99 27 78 98 62 27 ea ce f3 26 cd 12 3a 27
       4.2650625e-15 3.1446454e-15 1.6917596e-15 2.5822877e-15
0002b0 95 00 cd 27 8a e4 92 27 e3 0c e6 27 80 5f b8 27
       5.689956e-15 4.0770923e-15 6.3851796e-15 5.11738e-15
0002c0 21 d7 e4 26 94 fc 04 27 3f 91 cc a5 7c 66 fc 26
       1.5878989e-15 1.8455603e-15 -3.5486781e-16 1.7513791e-15
0002d0 54 b8 e8 25 b9 3c 55 26 d8 ea 94 26 14 6c 0d 27
       4.037049e-16 7.3981515e-16 1.0333218e-15 1.962627e-15
0002e0 76 e2 30 26 00 a7 9a 27 d2 be 86 27 24 d7 fa 26
       6.136918e-16 4.292465e-15 3.739936e-15 1.7405549e-15
0002f0 bc 26 37 a7 33 7b bc 27 84 d7 c0 27 cf 23 3a 27
       -2.541735e-15 5.2314055e-15 5.3524368e-15 2.5832097e-15
000300 19 15 5b 27 00 68 db 27 e4 89 91 27 41 02 ef 27
       3.0403792e-15 6.0897468e-15 4.0395086e-15 6.633827e-15
000310 7b 66 de 27 8e d9 a2 27 4f 75 a5 27 cf 2d 97 27
       6.1728487e-15 4.5199906e-15 4.5923886e-15 4.1960585e-15
000320 f3 6d 9c 27 97 e5 01 28 25 46 00 28 c5 4d c0 27
       4.3417905e-15 7.210723e-15 7.1206375e-15 5.3375023e-15
000330 e9 1c 68 27 07 6b 94 27 96 66 51 27 da 7e 5b 27
       3.221214e-15 4.119429e-15 2.9060188e-15 3.0461122e-15
000340 3c 87 d2 26 db cd c3 26 08 0d 38 27 47 c1 99 27
       1.4608333e-15 1.358664e-15 2.5542194e-15 4.2675582e-15
000350 41 1a 81 27 fe c5 bf 24 dd 6a b0 27 f2 e0 38 a7
       3.5833157e-15 8.316846e-17 4.8965674e-15 -2.5657073e-15
000360 c8 6e f9 27 2e 8c a7 27 0c 53 8e 27 85 62 dc 26
       6.9231493e-15 4.6503794e-15 3.9502957e-15 1.529227e-15
000370 fc ec 77 a5 06 cc b2 25 c8 ea 59 27 cc 71 59 27
       -2.1504128e-16 3.101633e-16 3.0242075e-15 3.017649e-15
000380 ff 39 04 28 8a c2 e2 27 63 ac 51 27 97 f2 b2 27
       7.340048e-15 6.293852e-15 2.9098028e-15 4.966794e-15
000390 f7 62 b9 27 ae 12 a5 27 a6 12 9a 26 c3 72 05 25
       5.1455113e-15 4.5816952e-15 1.0690951e-15 1.1574794e-16
0003a0 0f ff 54 27 9e fb 6f 27 9d 33 8e 27 22 f4 a1 a5
       2.9559178e-15 3.3304315e-15 3.9468877e-15 -2.809448e-16
0003b0 98 5e 5c 27 ca a4 bf a6 6a 57 ac 27 f8 38 ae 27
       3.0582413e-15 -1.3297954e-15 4.7834365e-15 4.8356467e-15
0003c0 e4 37 ad 27 12 5f d4 27 38 af fd 25 93 e2 dc 27
       4.8077743e-15 5.8944896e-15 4.4007237e-16 6.130792e-15
0003d0 08 0e 9f 27 ee 41 89 27 bf 74 6c 26 d7 3b 13 a6
       4.414658e-15 3.809662e-15 8.203717e-16 -5.108197e-16
0003e0 15 c3 ba 26 3e cb 0a 27 b2 6d 25 27 dc 83 7b 27
       1.295922e-15 1.9261525e-15 2.2957816e-15 3.4904729e-15
0003f0 4c 94 f7 26 1b 77 39 27 5b 8b 6e 27 3e cb a8 27
       1.7179264e-15 2.5738475e-15 3.310468e-15 4.6849723e-15

bias f4 [2]
000000 42 f4 ee 3c a2 36 08 3c
       0.029169206 0.008313807
